…
e allowed to be loaded via this mode unless they are explicitly allowlisted by the user via `torch.serialization.add_safe_globals`. We recommend you start setting `weights_only=True` for any use case where you don't have full control of the loaded file. Please open an issue on GitHub for any issues related to this experimental feature.
  ckpt = torch.load(weights, map_location='cpu')  # load checkpoint to CPU to avoid CUDA memory leak
Overriding model.yaml nc=80 with nc=3

                 from  n    params  module                                  arguments
  0                -1  1      1856  models.common.Conv                      [3, 64, 3, 2]
  1                -1  1     73984  models.common.Conv                      [64, 128, 3, 2]
  2                -1  1    212864  models.common.RepNCSPELAN4              [128, 256, 128, 64, 1]
  3                -1  1    164352  models.common.ADown                     [256, 256]
  4                -1  1    847616  models.common.RepNCSPELAN4              [256, 512, 256, 128, 1]
  5                -1  1    656384  models.common.ADown                     [512, 512]
  6                -1  1   2857472  models.common.RepNCSPELAN4              [512, 512, 512, 256, 1]
  7                -1  1    656384  models.common.ADown                     [512, 512]
  8                -1  1   2857472  models.common.RepNCSPELAN4              [512, 512, 512, 256, 1]
  9                -1  1    656896  models.common.SPPELAN                   [512, 512, 256]
 10                -1  1         0  torch.nn.modules.upsampling.Upsample    [None, 2, 'nearest']
 11           [-1, 6]  1         0  models.common.Concat                    [1]
 12                -1  1   3119616  models.common.RepNCSPELAN4              [1024, 512, 512, 256, 1]
 13                -1  1         0  torch.nn.modules.upsampling.Upsample    [None, 2, 'nearest']
 14           [-1, 4]  1         0  models.common.Concat                    [1]
 15                -1  1    912640  models.common.RepNCSPELAN4              [1024, 256, 256, 128, 1]
 16                -1  1    164352  models.common.ADown                     [256, 256]
 17          [-1, 12]  1         0  models.common.Concat                    [1]
 18                -1  1   2988544  models.common.RepNCSPELAN4              [768, 512, 512, 256, 1]
 19                -1  1    656384  models.common.ADown                     [512, 512]
 20           [-1, 9]  1         0  models.common.Concat                    [1]
 21                -1  1   3119616  models.common.RepNCSPELAN4              [1024, 512, 512, 256, 1]
 22      [15, 18, 21]  1   5492953  models.yolo.DDetect                     [3, [256, 512, 512]]
gelan-c summary: 621 layers, 25439385 parameters, 25439369 gradients, 103.2 GFLOPs

Transferred 931/937 items from /content/weights/gelan-c.pt
[34m[1mAMP: [0mchecks passed ✅
[34m[1moptimizer:[0m SGD(lr=0.01) with parameter groups 154 weight(decay=0.0), 161 weight(decay=0.0005), 160 bias
…
